assignments/assignment-1-PEFT/saved_pefts/adapter/adapter.pt (torch, 433685 bytes, 48 tensors)

encoder.block.0.layer.1.adapter.sharif_llm_adapter.0.weight f4 [8, 512]
000000 27 fd 8e bd e0 7b d2 bd 0c 9c c2 3c 20 f9 12 be
       -0.06981879 -0.102775335 0.02375605 -0.14352846
000010 76 8f 16 be 3f b5 05 bc 0e 25 b4 bd bd 71 8d bd
       -0.14703164 -0.008160888 -0.0879613 -0.069064595
000020 96 fc 71 bc 54 14 90 3a ab af 90 bd 3f 57 93 3d
       -0.014769694 0.0010992386 -0.07064756 0.07194375
000030 49 0a 04 3c df ce 00 3e 9c 85 80 3d 43 b5 57 bd
       0.008059093 0.12578915 0.06275484 -0.0526631
000040 f3 56 ed 3b e6 c6 50 be df 85 ab bd 2b 68 3f 3d
       0.007243031 -0.20388374 -0.08375143 0.0467302
000050 24 3d d7 3c 0d bf 8d 3e 61 d3 8f bd 1c 37 4c 3d
       0.026274271 0.27684823 -0.07022739 0.049857244
000060 be 42 97 bd 45 a7 b2 bd 53 71 92 bd 47 ff 11 bd
       -0.07385777 -0.087233104 -0.07150521 -0.035643842
000070 8f 18 ac 3d 11 6b 0b 3e 46 be d7 3a 4b d2 4e 3d
       0.08403122 0.13615061 0.0016459904 0.05049352
000080 47 0b 0e 3c d5 34 32 3d d7 99 c2 3d ca a6 5f 3c
       0.008669681 0.043507416 0.09501999 0.013650605
000090 b3 81 9a 3d c8 84 d7 3c 81 40 6d 3c 3e f7 15 be
       0.075442694 0.026308432 0.014480711 -0.14645097
0000a0 6c 04 da bd 1d 81 d7 3d 92 32 63 bd a5 f9 ae bd
       -0.10645375 0.10522673 -0.05546815 -0.0854371
0000b0 ab 62 bf bd d6 85 1c 3d 6c 17 6d bd a1 55 02 be
       -0.09344991 0.038213573 -0.057883665 -0.12727977
0000c0 7b 37 7a bd 8a b9 b8 3d ac 0d f5 bc 0f e2 21 3e
       -0.061088067 0.09019764 -0.029913746 0.15808891
0000d0 9e 78 33 bd d8 39 cc 3d ba f2 20 3e 16 45 80 3c
       -0.0438162 0.0997197 0.15717593 0.015657943
0000e0 ba 51 37 3e 03 a3 59 3d 6e 28 12 3d 12 d8 04 be
       0.1790227 0.053133976 0.035683088 -0.1297305
0000f0 07 83 0b 3e 2c 37 c1 3d a5 83 f9 3a 1b 0e db bd
       0.13624202 0.09434351 0.0019036426 -0.1069605
000100 0f b0 4e bb 04 c4 04 be 1d 9a 16 bd 57 6f 30 bd
       -0.0031538045 -0.12965399 -0.036768068 -0.043074932
000110 a1 b6 c9 3c c7 6c db bc 18 f5 1a 3c e6 03 ae bd
       0.024623217 -0.026785268 0.009457849 -0.08496837
000120 f0 4a 56 3d c0 f3 9e 3d 92 8b aa 3c 97 a8 1d bd
       0.05231756 0.077613354 0.020818505 -0.038490858
000130 a1 22 f7 bb 19 22 80 bc c4 f3 fe 3d e1 26 6b 3d
       -0.00754197 -0.015641259 0.12448838 0.057410125
000140 84 71 03 bd 33 e0 3c 3e 41 b6 c8 bd 05 22 a7 bd
       -0.03209068 0.184449 -0.09800387 -0.081607856
000150 28 f7 45 bd 93 ab 2e bd 0e 23 59 3d 4d 87 d5 3d
       -0.04833141 -0.042644095 0.053011946 0.10426197
000160 81 af ab bd 41 50 9a 3d d7 e6 8b 3d 6f 38 8c 3d
       -0.08383084 0.075348385 0.068311386 0.06846701
000170 8f 86 4f 3d f2 0c 5a 3e 6a 9b 65 bd 03 1a 1d bd
       0.050665434 0.21294 -0.056056418 -0.038354885
000180 1b 14 fa 3d 5e 14 9a 3d 35 b7 03 be 58 23 11 3d
       0.12210866 0.07523416 -0.12862857 0.035434097
000190 e1 c0 4b 3e dd b7 31 bd 7c 2d 40 bd 16 6f 1b 3e
       0.19897796 -0.043388236 -0.046918377 0.15179095
0001a0 40 e2 37 3d 4c 35 fc 3c 92 28 5b 3d e7 7f 9b 3d
       0.044893503 0.030787133 0.053505488 0.07592755
0001b0 3c 17 e0 3d ea 62 b6 3c bc 42 59 bd 3c 5c 08 bd
       0.109419316 0.022263963 -0.05304216 -0.033291087
0001c0 e4 b4 93 3d 01 53 27 3b 8a e9 1f 3e 03 36 d0 bd
       0.072122365 0.0025531652 0.15616432 -0.10166552
0001d0 74 7d 52 bd 5d 8d 3a 3d c9 16 72 3d c4 c5 97 3d
       -0.051389173 0.04554497 0.05910376 0.07410768
0001e0 9f 37 88 3d 20 81 0d 3d b5 8f 4a be 31 77 04 bd
       0.06651234 0.03454697 -0.19781382 -0.032340232
0001f0 25 e9 f3 bc 18 85 0c bd 70 ea c0 bd 1f 94 9d 3d
       -0.029774258 -0.034306616 -0.094197154 0.076942675
000200 8e a1 cf 3b 49 8b 29 3e 97 39 aa 3d cb 7a fc 3c
       0.0063363975 0.1655704 0.08311766 0.030820271
000210 cb 48 ee bd b7 8f 90 3d 42 8f 38 3e 85 90 1b 3d
       -0.11634978 0.070586614 0.18023399 0.03797962
000220 fc 5b 5b bd 5c 66 95 3d 16 2b 52 bd 19 64 07 3d
       -0.05355452 0.07294914 -0.05131062 0.033054445
000230 69 ba d7 3d 33 b5 a7 3d 82 72 c5 3c df 4b 1d 3d
       0.10533602 0.08188858 0.024102453 0.038402434
000240 ab 46 46 bd 3b 33 56 bd 64 b8 81 3d 0a b2 04 3d
       -0.048407238 -0.05229495 0.06333998 0.032396354
000250 1c 9b a4 bc 30 3b 59 3d 2f 9b cd 3b ca 02 ea bc
       -0.020093493 0.05303496 0.006274603 -0.028565783
000260 7a b0 73 bc 81 67 bd 3c 3d 70 2b be b3 d3 1a 3d
       -0.014873618 0.023120644 -0.16742034 0.03779955
000270 9f 26 5e 3d c1 cd 07 be e9 b0 23 3e 4f bc e8 bd
       0.05423605 -0.13262083 0.15985455 -0.11364042
000280 62 a7 52 bb 01 ba 88 3d 91 4e 25 3e cb b4 66 3d
       -0.0032143225 0.066761024 0.16143252 0.05632476
000290 8d 91 df bd 45 f0 d5 bd 35 5b 0c 3d d4 f1 13 bd
       -0.109164335 -0.104462184 0.03426667 -0.036119297
0002a0 41 12 9a 3d 3d d5 8c 3c 0e 44 94 ba e4 07 31 3e
       0.07523013 0.017191524 -0.0011311786 0.17288166
0002b0 22 ce b9 bd 70 29 d5 bc 88 54 ca 3d aa b6 b3 3b
       -0.0907252 -0.026020736 0.09879404 0.0054844217
0002c0 c1 11 bb 3d ae a7 b1 3c 03 4e f1 bc 66 27 0a 3d
       0.09134246 0.021686401 -0.029456144 0.03372898
0002d0 ed ba c0 bd 3a c3 f8 3d d2 eb 3f 3e 8f 18 65 bd
       -0.09410653 0.121466115 0.18742302 -0.055931624
0002e0 6e 4f 41 be 3c a4 fc 3d 27 cd 64 3c 8f 58 b1 bd
       -0.18877956 0.12336013 0.013964928 -0.08659469
0002f0 ef 71 e5 3d ef 49 40 bb d7 70 0c bd a3 e0 8e bd
       0.11203372 -0.0029340943 -0.0342873 -0.0697644
000300 e9 f8 d6 bd 7a e4 d8 bd 06 2b 1d be 04 17 a6 bc
       -0.104966946 -0.105904534 -0.15348443 -0.020274647
000310 7f 6a 89 bd 49 cc 1f 3d 72 5e 98 bd a4 65 0d 3e
       -0.06709766 0.03901318 -0.07439889 0.13808304
000320 af 04 8b bc 0d 56 4a bd 46 f6 5a 3a 46 19 c0 bc
       -0.016970007 -0.04939847 0.00083527376 -0.023449551
000330 a0 66 3c 3a 50 8d a7 3d cb c4 b3 bc ed 9b a7 bd
       0.0007186923 0.0818125 -0.021944424 -0.08184037
000340 3f 12 12 3e b1 f1 7c bd dc ad 13 3e e3 33 b0 bd
       0.14264773 -0.061753932 0.14421791 -0.086036466
000350 4e e0 81 bd 94 98 d7 3c 9c 37 1b 3a 7e 13 a8 bd
       -0.06341611 0.026317872 0.0005921067 -0.08206843
000360 3c a2 76 3e e3 24 10 be 33 51 51 bd 54 d5 fb 3c
       0.24085325 -0.14076571 -0.05110283 0.030741371
000370 66 07 b5 3d 8e ec 43 3d 41 08 49 3d 9b 97 a1 bc
       0.08839302 0.047833018 0.049080137 -0.019725611
000380 1b df a3 be f5 92 a6 3d d0 ba fe bd 32 31 72 bd
       -0.32006153 0.081334986 -0.124379754 -0.059128948
000390 16 dc 26 3e b7 f1 42 bd 76 c4 b1 3d d8 11 0e bc
       0.16294894 -0.0475938 0.0868005 -0.0086712465
0003a0 90 21 54 3e d3 df b0 bb 95 a6 ea 3c 0e 76 6c 3d
       0.20715928 -0.0053977757 0.028643886 0.057729773
0003b0 4b e4 92 bd 15 90 db bd a1 d4 d0 3d 3e e3 68 bd
       -0.0717245 -0.10720841 0.10196806 -0.05685734
0003c0 ec 37 7f bd 3c 12 2b bd 59 2a 8d bd 47 11 1a bd
       -0.06230919 -0.041765437 -0.06892843 -0.037614133
0003d0 6d 83 4a bc 6f 8e 09 3d ea 5d ca 3d 37 05 2c bd
       -0.012360436 0.0335831 0.09881194 -0.04199716
0003e0 f9 d4 80 3d a3 4c b7 bc 84 2e e9 3d 7d ec 78 bd
       0.06290621 -0.02237541 0.11385825 -0.060772408
0003f0 5a 92 d7 3d 8b 4d 3a 3d 8e c2 05 3e f8 fe 08 3d
       0.10525961 0.045484107 0.13062498 0.033446282

encoder.block.0.layer.1.adapter.sharif_llm_adapter.0.bias f4 [8]
000000 1d cb cf bd 2a 20 9c bd c2 dc 90 bd ae e6 c3 bd
       -0.10146163 -0.07623322 -0.07073356 -0.09565483
000010 83 6e 47 bd c7 07 9e bd d4 a4 83 bd 36 56 cf bc
       -0.048689377 -0.07716327 -0.06427923 -0.025309663

encoder.block.0.layer.1.adapter.sharif_llm_adapter.2.weight f4 [512, 8]
000000 2a 31 35 be 85 0c 13 3e 0a 2a e0 3d 43 66 ba 3d
       -0.17694536 0.14360245 0.10945518 0.09101536
000010 53 11 12 bd 0b 09 d3 3e c7 72 a9 3d eb 43 0e 3d
       -0.035661053 0.41217837 0.08273845 0.03473274
000020 a0 4e 1c bb fd c1 2a be df b9 a1 3e 9d 03 20 be
       -0.0023850575 -0.16675563 0.3158712 -0.15626378
000030 b5 d3 bd be 92 84 89 3e 8a 88 cd bd 3a 71 9a be
       -0.37075582 0.26858956 -0.100358084 -0.3016451
000040 f3 ca fa 3d 3c 1c a5 bd 8b ad e1 bd 95 78 5f be
       0.12245741 -0.08062026 -0.11019429 -0.21823342
000050 ab 54 76 3e 58 4e 79 bd 7b 68 11 3e 4b 23 4d be
       0.24055736 -0.06086573 0.14200012 -0.20032994
000060 05 85 8d 3e 4c a7 bf 3d 3e 5e f2 be fd e7 38 be
       0.27640548 0.09358081 -0.47337526 -0.18057247
000070 4c 07 d2 bd e1 e1 13 3d 50 75 e0 be 09 4b 40 be
       -0.10255298 0.036104087 -0.43839502 -0.18778624
000080 2d 8f a4 be 17 b7 30 3d b9 c3 85 be 1e 32 31 be
       -0.32140484 0.043143358 -0.26125887 -0.17304274
000090 1e 05 2f bc d6 4f 37 be 67 b4 8c 3e 7e b4 70 be
       -0.010682372 -0.17901549 0.27481386 -0.23506352
0000a0 6a 32 73 bd 0e e1 8d 3e 3e 91 37 3e 2c b0 98 3d
       -0.05937425 0.27710766 0.17926499 0.07455477
0000b0 28 7a 86 be bf e9 8e be bd 97 c7 3c 03 78 25 bb
       -0.26265073 -0.2791271 0.024364347 -0.0025248535
0000c0 33 11 97 bd 7e 53 18 be 9e 6a e8 be 29 eb c7 3d
       -0.07376327 -0.148756 -0.45393842 0.0976165
0000d0 86 26 2b 3e bc 60 19 3e 7b e0 6c be 36 1a cc be
       0.16713914 0.14978307 -0.23132508 -0.39863747
0000e0 11 3e 0a bd 4e 88 ad be 3d d6 05 3c c4 c2 7b 3e
       -0.033750597 -0.33893055 0.008168754 0.24586016
0000f0 02 23 62 be 48 60 7e 3e 96 6e 93 3e 39 bd ca be
       -0.22083667 0.24841416 0.28795308 -0.3959749
000100 ce bb 44 3d 32 ee a7 be d9 de f0 be b5 35 c3 3e
       0.048030667 -0.32798916 -0.4704502 0.38126913
000110 75 25 2b be 44 69 d7 be 32 3a 3a 3d ce 8c 66 be
       -0.16713507 -0.420725 0.045465656 -0.2251465
000120 c3 07 66 3d 36 2f e2 3c 44 ec 25 be fa 4b 51 3e
       0.056159746 0.027610403 -0.1620341 0.20439139
000130 32 96 bd be b4 e7 21 be 09 04 c6 3d ed 6a 5d bd
       -0.37028652 -0.15811044 0.096687384 -0.05405705
000140 f9 d7 6e 3e cf a5 66 3e 5d eb b1 bc 52 34 bc be
       0.23324575 0.22524188 -0.021718675 -0.36758667
000150 7a 46 21 3d 37 c8 1d be 99 6c 15 bd 17 82 ad 3d
       0.039373852 -0.15408407 -0.03648052 0.08472078
000160 aa 79 b2 3e 09 a6 3e be c4 58 86 3d ec ea 1a bd
       0.34858447 -0.18618025 0.065598994 -0.037821695
000170 99 a7 56 bc bb 62 d9 3e f4 d9 4b be 1e 18 24 be
       -0.013101482 0.42458138 -0.19907361 -0.16024825
000180 6a 79 df 3d 5c 42 7d bc 26 69 f1 3e 45 27 8b be
       0.1091183 -0.015457716 0.47150534 -0.27178398
000190 60 f7 3f bd fa 9f 3a 3e f6 1f dd 3e 04 db 93 be
       -0.046866775 0.18225089 0.43188447 -0.28878033
0001a0 01 3d 5f 3c 9b ca 93 bd dd 17 52 3d a7 ea 66 3e
       0.013625384 -0.07216378 0.05129229 0.2255045
0001b0 5f 08 a5 3e 2f e8 f1 3c a1 11 9c be b6 f3 90 3e
       0.3223295 0.02952966 -0.304822 0.28310937
0001c0 61 52 5c be 23 7e 57 3e 52 d5 db 3d 80 33 34 be
       -0.215158 0.21044211 0.10734047 -0.1759777
0001d0 2b f2 67 be 29 ef 06 bd ec 5e 30 be 64 5e 76 be
       -0.22650973 -0.032942925 -0.1722371 -0.24059445
0001e0 6f c5 e4 bd 36 39 3a bd 10 ef 96 b9 a9 23 a2 3e
       -0.1117047 -0.045464717 -0.00028788345 0.31667832
0001f0 fa fa 42 3e 37 b3 4e 3e db b3 9f bd d3 69 b4 bd
       0.19041052 0.20185553 -0.077979766 -0.08809247
000200 3c bf 8b bd 2c ee aa be e6 59 0c 3f 85 f6 0d be
       -0.068235844 -0.33384836 0.54824674 -0.13863571
000210 09 fe 8c 3e 66 35 18 be 8f dc ce 3e 69 56 01 3e
       0.27537563 -0.1486412 0.40402648 0.12630619
000220 b1 12 28 be 85 39 a8 be af f6 85 3d f7 cb 62 3b
       -0.1641338 -0.32856384 0.06541192 0.0034606436
000230 85 65 45 bc 2b 90 e4 bd 60 00 ca be ce 1a 0a ba
       -0.01204813 -0.1116031 -0.3945341 -0.00052682764
000240 35 b2 ff bd 4f f7 3c 3e aa 94 04 be 80 bf 6a 3d
       -0.12485162 0.18453716 -0.12947336 0.057311535
000250 77 a4 44 3e e0 db 28 3e 00 8a 27 3d 6a 25 bf bd
       0.19203363 0.16490126 0.04090309 -0.09333308
000260 b1 ba 92 bc 2f a2 a1 3c 3e 5f 39 bb 36 c0 c8 3c
       -0.017911287 0.019730655 -0.0028285529 0.024505716
000270 bf 80 b2 be 37 e3 fa bd 20 68 a2 be 12 d8 7c bd
       -0.3486385 -0.12250369 -0.31720066 -0.0617295
000280 76 c8 b9 be 01 09 66 be c9 60 c1 bd 15 4a cf 3e
       -0.36285752 -0.22464372 -0.094422884 0.40486208
000290 21 b2 8e bd 5c fe 1c 3e ad 3c cc be 1f 0b af bd
       -0.06967569 0.15331405 -0.39890042 -0.08547043
0002a0 e0 fc 2c 3e e7 59 7b be 51 81 1f 3e 58 02 98 be
       0.16893339 -0.24546014 0.15576674 -0.29689288
0002b0 e9 ef c9 bc 2a 2c 08 3e 88 96 dc 3d 52 b6 2c 3d
       -0.02465053 0.13298097 0.10770899 0.04216606
0002c0 cb 3a ac 3e db f9 20 be c8 60 aa 3d 71 fa 17 be
       0.33638605 -0.15720312 0.08319241 -0.1484163
0002d0 3e b5 28 be fe 03 3d 3e 03 ef 81 bc ca de 1c 3d
       -0.16475388 0.18458554 -0.01586104 0.038298406
0002e0 96 d5 7d bc d3 37 19 be 81 ab a7 be e1 47 02 3e
       -0.015492817 -0.14962701 -0.32748035 0.12722732
0002f0 28 9f 41 bc 41 33 e2 bc d6 b5 d4 3d 91 5d 45 3e
       -0.011817731 -0.02761233 0.10386245 0.19273974
000300 87 db 8d bd c4 6c aa bd 9e d0 1a bd 15 c5 81 be
       -0.06926637 -0.08321527 -0.03779661 -0.25345674
000310 d8 2f 8d be 7b 90 b8 3d e3 d0 99 bd 83 f9 9d 3d
       -0.27575564 0.090119325 -0.07510545 0.07713606
000320 8e ef 44 be 48 2c f5 bd 98 13 20 be 72 2e 25 3e
       -0.19232008 -0.119713366 -0.15632474 0.16130999
000330 83 82 97 be f0 90 0f 3d 92 95 06 3e 5d 35 b1 bd
       -0.2959176 0.035050333 0.13142994 -0.08652756
000340 0f 55 3e be 19 3c 6a be 6b 37 c8 3e da 96 a3 bd
       -0.18587135 -0.22874488 0.3910478 -0.07987757
000350 ba 15 26 be 94 9e d7 3d 4d 2d d2 be 57 7f a4 be
       -0.16219226 0.10528293 -0.41050187 -0.32128403
000360 99 f6 67 be bc b1 6f be c3 8c 5a bd ea ec 16 3d
       -0.22652663 -0.23407644 -0.053356897 0.036847033
000370 71 04 b3 3c 94 0c cd be 7c 3d 4f 3e 41 5b 80 be
       0.021852704 -0.4004866 0.20238298 -0.2506962
000380 21 6c a7 be 08 b3 24 3e ad 2e 4d 3d c5 60 c5 bb
       -0.32699683 0.1608392 0.05009334 -0.0060234987
000390 01 3c b1 3e 1d b7 39 3e 37 be 74 3e 13 1d 79 3e
       0.34616092 0.18136258 0.23900686 0.24327497
0003a0 f5 d0 17 3e b0 5b 6c be 7e 04 d5 be 75 f8 48 be
       0.14825805 -0.23081851 -0.4160499 -0.19626029
0003b0 77 b0 5c 3e 50 61 4c bc b6 2a c3 3d 55 ed bd bd
       0.21551691 -0.012474373 0.09529631 -0.09273783
0003c0 4a b5 82 3e 5b 44 49 be 18 f3 e7 bc fc 3d 3a be
       0.25528938 -0.19654982 -0.028314158 -0.18187708
0003d0 2f db bf 3d 02 a1 82 3b 3e 5a 6c be 68 49 af 3e
       0.09367978 0.003986479 -0.230813 0.34235692
0003e0 5c d3 92 bc d7 99 51 3d 39 6f ec bd 6d e5 57 3c
       -0.01792305 0.051172104 -0.115446515 0.013177258
0003f0 9f ee ab be b5 46 73 be b2 6b 25 be 16 dc 5c 3d
       -0.3358049 -0.23757441 -0.16154364 0.053920828

encoder.block.0.layer.1.adapter.sharif_llm_adapter.2.bias f4 [512]
000000 c4 61 6d 3e 8d 07 e3 3d 4a 29 e6 3d 53 09 4b be
       0.23181826 0.110854246 0.11238344 -0.19827776
000010 8e 4d 98 bd 3c 58 e0 be fd 0a c2 3d 23 dd 29 3d
       -0.074366674 -0.43817317 0.09474752 0.041470658
000020 c7 44 38 bc fa e6 88 bd f0 72 0a be 18 ed 24 3e
       -0.011246867 -0.0668468 -0.13520408 0.16106069
000030 07 a4 7d be 4a a7 8a 3e 7e a7 97 3c 7b 3c 3d 3e
       -0.24769603 0.27080756 0.018512484 0.18480103
000040 eb f8 5c 3d 08 b4 88 be 8e c3 f9 3a 07 3f fc 3d
       0.053948324 -0.26699853 0.0019055472 0.12316709
000050 c3 1a 41 bd 40 7b 08 bd 66 c5 c5 be cc 35 62 3d
       -0.047144663 -0.033320665 -0.38627166 0.055227086
000060 4f 15 de 3d f5 b6 a9 be 9c 22 8f be 50 fa 6a 3d
       0.10843908 -0.33147398 -0.27956092 0.057367623
000070 6f 83 41 be bf d7 26 be 07 4a 4f be 5b 63 f1 3c
       -0.18897794 -0.16293238 -0.20243083 0.029466322
000080 5e 54 16 be 2c 4c a7 3e 09 73 02 3f 61 ed b4 bd
       -0.14680621 0.32675302 0.5095678 -0.08834339
000090 9d 2b dc 3e 3d c5 a5 bd 3f 3a 8a be 1f 22 0b 3e
       0.43002024 -0.08094261 -0.26997563 0.13587235
0000a0 b9 af 6d be 8f 54 0a 3e 5f 5a 6f 3e fa e2 84 3d
       -0.23211564 0.13508819 0.23374318 0.06488605
0000b0 49 a3 b9 bd 22 d0 c8 3b 52 4e 0a bf d7 a4 e6 bd
       -0.09064347 0.006128327 -0.5402576 -0.112619095
0000c0 d4 de 62 3e 0c 0c 42 ba 36 c4 f5 3d 11 ff 17 3e
       0.22155315 -0.0007402308 0.12000315 0.14843394
0000d0 45 50 40 3e d8 7f eb 3d 6f 61 52 3d db 33 c1 bd
       0.1878062 0.11498994 0.05136245 -0.09433719
0000e0 7e c6 7e be dc 59 36 be 6e cc 5d be 03 c1 6b 3e
       -0.24880406 -0.17807716 -0.21660015 0.23022847
0000f0 9b c4 9f 3e 92 df de be e9 51 5e 3e 62 03 98 3d
       0.31204686 -0.43529946 0.21710934 0.0742252
000100 77 8e a1 3d 69 fb 62 be 55 52 07 3e b2 8f 4f be
       0.07888501 -0.22166218 0.13215001 -0.20269659
000110 2b 4d 60 3e 16 5c 24 be 5d d0 e7 ba 64 96 4b 3e
       0.21904437 -0.16050753 -0.0017685998 0.19881588
000120 71 3e 92 be 31 d9 ae bc 62 06 8f bd df ae da be
       -0.28563264 -0.0213438 -0.06983639 -0.4271154
000130 a3 bd 16 be f5 fb bd 3d 73 69 8b be bf 76 72 3e
       -0.14720778 0.092765726 -0.2722889 0.2367811
000140 cf f2 dd be 2a b3 c1 3e 5b c2 27 be 98 ab f0 bc
       -0.4334931 0.37832004 -0.16382734 -0.029378697
000150 3c 29 12 3c e0 ea 3b be 43 cd 3c be 80 c8 8b 3e
       0.008920964 -0.18351316 -0.18437676 0.27301407
000160 9f b6 99 be 20 8f 5c 3e 22 3f 94 be 40 bd 5d 3d
       -0.3002214 0.21538973 -0.28954417 0.05413556
000170 a9 ad 5d be 3c 17 8d 3e fa b1 9e 3d 55 f6 eb bd
       -0.21648277 0.2755679 0.0774879 -0.115215935
000180 a2 aa 54 be 56 55 b2 bd 34 bc ab bd 38 6c 4c 3e
       -0.20768216 -0.08707683 -0.08385506 0.19963157
000190 a3 b3 28 3e 69 d7 84 bd 24 6c e4 3e 85 88 52 be
       0.16474776 -0.06486399 0.44613755 -0.2055989
0001a0 4e e7 74 be 17 bc a6 3d f5 1e 8b bd e2 d4 32 3e
       -0.2391636 0.08141344 -0.06793014 0.17464021
0001b0 8c e1 1e 3f b9 02 ad bd cf 4e 7f be d0 9a 2c 3e
       0.6206291 -0.08447785 -0.24932407 0.16855931
0001c0 9d a7 75 3e bc 28 07 bd 7c f9 69 be 06 86 7c be
       0.2398972 -0.03299783 -0.22849077 -0.24660501
0001d0 d8 0c 89 be 6b 05 a4 bd b1 12 b1 3e 59 62 90 be
       -0.26767612 -0.08008846 0.34584573 -0.28200033
0001e0 8d 29 8f ba 39 26 c3 bd 2b c9 af bd 4c 73 87 be
       -0.0010922417 -0.09528775 -0.085832916 -0.26455152
0001f0 44 c2 b6 bd ae 54 2a be f9 f1 15 3e c6 da 04 3f
       -0.08923772 -0.16633865 0.14643086 0.5189632
000200 c1 a4 28 3d 88 f4 cf 3e 29 c6 38 be 81 6b 70 be
       0.041172747 0.4061625 -0.18044342 -0.2347851
000210 22 01 36 3e 6a 95 ee bc b2 37 48 be ac 30 7b be
       0.1777387 -0.02912398 -0.19552496 -0.24530286
000220 e8 da 55 3e 10 e6 4a be 08 ad 98 3e 0b b1 80 3e
       0.20884287 -0.19814324 0.29819512 0.25135073
000230 1b bf 90 be b4 f8 c4 be fd 1e 92 bd 9e f6 6f 3e
       -0.28270802 -0.38470995 -0.07134817 0.2343392
000240 0d 6a b4 3d bd c4 90 3d a6 dc ba 3e 72 1f ed be
       0.0880929 0.07068775 0.36496466 -0.46313053
000250 9c 51 0f 3f 5b ff 5c be b7 4c a0 be e7 bb 78 3d
       0.559839 -0.21581785 -0.3130853 0.060726073
000260 3b 73 3e be 69 21 74 bd 93 c5 e9 bc b0 5c 57 3e
       -0.18598644 -0.059602175 -0.028536594 0.21031451
000270 81 17 2c 3e 30 db 3f be ba 1e 66 3e 0f a2 51 3e
       0.16805841 -0.18735957 0.22472659 0.20471977
000280 2a 91 9a 3d 6d 81 c4 3e 87 e9 bc be a3 2f b1 3e
       0.07547219 0.38379994 -0.36896917 0.34606656
000290 9f 3a 48 3e 58 f6 44 3b da 68 a8 be dc dd 26 be
       0.19553612 0.003005406 -0.32892495 -0.1629557
0002a0 6d 2e 9f 3e af a5 00 bd c4 0c b9 bd 0e 23 0e bd
       0.31090108 -0.03140801 -0.09035638 -0.0347014
0002b0 96 24 69 3e 0a 45 5e 3e fa 19 4d be a2 80 96 bd
       0.22767863 0.21706024 -0.2002944 -0.073487535
0002c0 54 2b b0 bd 39 19 98 3e a5 31 75 be 39 8a 76 3e
       -0.08602014 0.29706743 -0.23944719 0.24076165
0002d0 cd fa fb bd 99 ce bc be 5c 24 e8 3d 5c 06 26 3e
       -0.12303696 -0.36876372 0.1133506 0.16213363
0002e0 c2 3b bd bd 83 87 e4 be 1f a4 e0 bd 81 cd 19 3e
       -0.092399135 -0.44634637 -0.109688036 0.150198
0002f0 99 0f 78 bd 13 d4 c9 be 3d 31 f6 bd e1 85 4c bd
       -0.06056175 -0.39419612 -0.1202111 -0.049932364
000300 5d 0f a2 be ec f4 85 3e 03 d2 a1 3d 1c 7f f9 3d
       -0.31652346 0.26163423 0.07901385 0.12182447
000310 ae 58 b3 3d 7e 0e 32 be 6c d5 ad bd ce 48 cc bd
       0.08757149 -0.17388341 -0.084879726 -0.09974824
000320 36 a2 87 bd 02 af 61 3e c5 23 82 be 2a 06 1e bd
       -0.06622736 0.22039416 -0.25417915 -0.038580097
000330 16 77 8d be a9 d7 27 be ad 30 b5 3d ed 11 29 3e
       -0.27629918 -0.16390862 0.08847175 0.16510744
000340 22 dc 93 3d 75 ff d9 3d e8 28 3c be ce ed 82 bc
       0.072197214 0.10644428 -0.1837498 -0.015982535
000350 9c 91 50 be e8 ec 58 be 62 98 ea bd ac ad 87 be
       -0.20368046 -0.21184123 -0.11454846 -0.2649969
000360 b1 4c a3 bd 4c c0 ea 3d 51 f0 b1 3d 77 0c 78 be
       -0.07973612 0.11462459 0.08688415 -0.24223505
000370 12 92 9a 3e 84 7a 82 be f6 18 12 3e 82 9c 44 3e
       0.30189568 -0.25484097 0.14267334 0.19200328
000380 18 cf 9a 3e f4 22 c4 bd ea 2d ed be fd 13 e0 bd
       0.30236125 -0.09576979 -0.46324092 -0.109413125
000390 e1 c4 8f 3e e2 d1 8d be 00 f7 c0 bd 91 8b a0 3e
       0.28079894 -0.2769919 -0.094221115 0.3135648
0003a0 0a e9 ab bd 00 8a 7c 3e f8 30 cc 3c 85 0c 89 be
       -0.08394058 0.24662018 0.024925694 -0.26767364
0003b0 0c 0a 74 3e c0 9b c9 3d f0 05 aa bd 0a ad 26 bc
       0.23831958 0.0984416 -0.08301914 -0.010173092
0003c0 5a 69 50 3e 7a 31 63 3d 25 c1 c9 be 97 3f 79 be
       0.20352688 0.055467106 -0.3940517 -0.24340664
0003d0 72 da 1c be ed 0d 0c bc d6 73 22 3d 45 e6 84 3e
       -0.15317705 -0.008548242 0.03966125 0.25956932
0003e0 78 1d 69 3e 87 46 01 3e 3a 0f 91 3e 0f c5 ec bd
       0.22765148 0.1262456 0.2833193 -0.115610234
0003f0 17 c8 d1 bd 54 30 4c bd 68 22 45 3e d8 66 53 be
       -0.10243242 -0.049850777 0.19251406 -0.206447

encoder.block.1.layer.1.adapter.sharif_llm_adapter.0.weight f4 [8, 512]
000000 b6 a0 bf bd 08 fb 20 3e 1f 49 36 3e a3 9c 46 3d
       -0.09356825 0.15720761 0.17801331 0.048489224
000010 98 62 60 bc 31 a1 e5 bd 1d d7 82 3d e5 0c 60 bd
       -0.013695382 -0.112123854 0.06388686 -0.054699797
000020 6b e7 88 3d 36 18 06 3e eb 86 eb 3c 33 bd 9f 3c
       0.066847645 0.13095173 0.028750857 0.019499397
000030 47 fa 9f bc 17 3e 85 bc 75 25 5e 3d 15 08 bb bd
       -0.019528521 -0.016264958 0.05423494 -0.09132401
000040 ce c7 fe 3d d7 35 1b be 4a a0 0a 3e d9 da 34 bd
       0.124404535 -0.15157257 0.13537708 -0.044154022
000050 51 46 26 3e 82 cc 11 be de 18 78 3b 76 dc 0d 3c
       0.16237761 -0.1423817 0.003785662 0.008658519
000060 56 b5 6b 3d a1 5e 55 3b 1c 87 28 ba a4 54 6c bc
       0.057545982 0.0032557624 -0.0006428824 -0.014424477
000070 19 1c 65 bc 62 b8 58 3d 22 1c cc 3d e4 8e 91 bc
       -0.01398375 0.052910216 0.099663034 -0.01776833
000080 2b 25 bc 3d fd 57 3d 3d a1 53 89 3b bf bd bc 3c
       0.09186777 0.04622649 0.0041908775 0.023039697
000090 b8 3d ba 3c f0 7c 77 3d 04 0a 03 be 34 dc 90 bc
       0.022734508 0.060421884 -0.1279679 -0.017683126
0000a0 c5 d5 85 3d f9 59 33 3d cd 54 31 bd 8c 6e 05 bc
       0.06534914 0.043786976 -0.043293763 -0.008144032
0000b0 e1 d3 48 bd 7f 51 d7 3c 51 66 0a bc ae 74 eb bd
       -0.04903019 0.026283978 -0.008447246 -0.11496864
0000c0 16 66 95 bd 30 ee 41 3c df ad 98 bd 7f 07 19 be
       -0.07294862 0.0118365735 -0.07455038 -0.14944266
0000d0 a2 12 a9 bd 11 ef a2 3d f3 84 5d bd 92 a0 1b 39
       -0.08255507 0.079557545 -0.05408187 0.00014841769
0000e0 99 80 f1 3b e4 b6 e2 bc a6 1e fb bc cc d8 f3 3d
       0.0073700664 -0.0276751 -0.030654263 0.11906585
0000f0 8c 86 3a bc d4 07 8e bd 1e c5 ee bc e7 0f 34 3c
       -0.011384618 -0.06935087 -0.029146727 0.01099012
000100 78 dd 59 3b 77 60 84 3d 5c 11 38 3e ad 51 07 3e
       0.0033243578 0.06463712 0.17975372 0.1321475
000110 2f ab 25 3d 09 fa 91 bc e6 30 5e 3d bc df bc 3d
       0.040446457 -0.017819421 0.054245852 0.092223614
000120 82 ca d3 3d 45 80 24 bd 2d 14 88 3c 6a ad a6 ba
       0.1034136 -0.04016139 0.016611183 -0.0012716476
000130 0a 9c 51 be 1d ac ce 3b 3e 5e 8c bd 69 9a 9b 3d
       -0.2046968 0.0063071386 -0.06853913 0.07597811
000140 fb 6a e7 3d fe 31 06 be 65 f9 f4 3c 3e a9 de bd
       0.11299702 -0.13105008 0.029904077 -0.10872124
000150 7f 35 6d bc 45 94 08 bd f3 e1 6d 3e da e8 9b 3d
       -0.0144780865 -0.033344526 0.23230724 0.07612772
000160 90 fd ad 3d eb 4d 05 3d 55 23 56 bd 90 74 01 bd
       0.08495629 0.03254501 -0.05227979 -0.031605303
000170 97 e1 a2 3c 47 10 3c 3e 4c b3 04 bd 06 be 09 3d
       0.01988296 0.18365584 -0.032397553 0.033628486
000180 f4 28 0c 3e 13 32 28 3e ce 76 ca bb 39 82 aa bd
       0.13687497 0.16425352 -0.0061787134 -0.08325619
000190 5d 86 64 bd a7 20 99 bb 82 79 c2 3d 11 b4 3d bd
       -0.0557922 -0.004673082 0.09495832 -0.046314303
0001a0 6d 0e 72 3d 13 f6 cd 3d cb b0 cf 3a 7d e7 3a 3e
       0.05909579 0.100567006 0.0015845535 0.18252368
0001b0 83 9f 94 bd 56 bc e7 3d a2 d0 33 bd 13 74 23 3d
       -0.07256987 0.11315219 -0.04390014 0.03990562
0001c0 91 3d 87 b9 c5 20 5f 3d 10 01 83 3d 88 2c 35 3d
       -0.00025795077 0.05447461 0.06396687 0.04423192
0001d0 29 c8 05 bd 72 bd 06 3e 21 a2 24 bd a5 26 06 3e
       -0.03266159 0.13158205 -0.04019368 0.13100679
0001e0 50 d0 2f be 5d 05 d7 bd c2 b0 8f 3c a8 70 c2 bd
       -0.17169309 -0.1049907 0.01754034 -0.09494144
0001f0 d8 8d 90 3d 42 89 55 3d 11 90 e9 3d d8 b5 82 3d
       0.070583045 0.052132852 0.114044316 0.0638234
000200 c4 dd 86 bc 6f dd c7 3d 58 34 a0 3c a4 89 13 3d
       -0.016463168 0.09759032 0.01955621 0.036019936
000210 7d 19 ca 3d ac 34 89 3c bd be 78 3c f1 6f f7 3c
       0.09868143 0.016748749 0.015182194 0.030204745
000220 9c 0d 37 3d 8e cb 49 3d 61 3c d8 3c 3a 27 56 3e
       0.044690713 0.04926639 0.026395978 0.20913401
000230 cc 5a ed bd 2b 0e f7 3c 03 cd b1 3d 31 b5 74 bc
       -0.11589584 0.030158123 0.08681681 -0.0149357775
000240 43 27 8b bd 76 15 26 bd c2 64 ab bd b3 0c 4b bd
       -0.06794598 -0.04054781 -0.083688274 -0.049572658
000250 4d 4e 73 3e 38 dd d4 3d 0c 61 23 3d 7c 14 6d bc
       0.23760338 0.10393757 0.039887473 -0.014470216
000260 53 de fa 3b 3f 0c 59 bc e1 00 0a 3d f3 16 d5 bc
       0.0076558976 -0.013247549 0.033692244 -0.02601192
000270 dd c1 5d bd d6 9e d4 3d 51 88 82 bd 16 1d 11 3b
       -0.05413996 0.10381858 -0.063736565 0.002214258
000280 0a 90 93 3c a9 d5 86 3c 0e 10 1c 3e cd eb 39 3d
       0.01801302 0.016459303 0.152405 0.045390893
000290 89 b1 89 bc 9d 28 67 3d a0 07 d1 bc 84 e2 e4 3c
       -0.016808288 0.056435216 -0.025516331 0.027940042
0002a0 25 46 4a be 43 4a 97 bc c0 d3 a7 3d 00 d1 38 3d
       -0.1975332 -0.018468028 0.08194685 0.045121193
0002b0 3f 51 4b 3d b2 42 de bc f5 a7 00 bc fb 1d f7 bd
       0.04963803 -0.027131412 -0.007852544 -0.12066265
0002c0 6c 4b 9c bd 6b 99 c0 bd 08 a2 83 3e 07 59 99 bd
       -0.07631573 -0.09404262 0.25709558 -0.07487684
0002d0 d0 70 c8 3d ce 25 3b 3e 97 f1 3b 3e 03 7b ed bb
       0.09787142 0.1827614 0.18353878 -0.00724733
0002e0 1f c0 44 3c 3c 84 57 3d db d3 b4 3d 39 e8 19 3d
       0.012008696 0.052616343 0.08829471 0.03757498
0002f0 16 a9 31 3c 86 1e b0 bd f3 08 62 bd eb 9b 13 bb
       0.010843536 -0.08599572 -0.055184316 -0.0022523354
000300 b5 85 1d be 35 54 a8 38 8a 06 54 3e 22 b8 12 bd
       -0.15383036 8.026549e-05 0.2070562 -0.035820134
000310 f2 b8 13 bd 76 59 9e 3a f7 f2 9a bd d0 81 3c be
       -0.03606505 0.0012081105 -0.07565873 -0.18408895
000320 ce 54 2c 3d 2f 5e 99 3d 6d 5b c2 bc 5f 03 a8 bc
       0.042073064 0.07488667 -0.023725236 -0.02050942
000330 5f 85 18 3d 9e 2e e3 bc 18 33 80 bd da e1 f8 bb
       0.037236568 -0.02773219 -0.06259745 -0.007595283
000340 82 e1 ce bc 0d c7 4b bd d9 4a a9 3b 1e d4 76 3e
       -0.025254015 -0.049750376 0.0051663932 0.24104354
000350 26 21 d5 3c ee 6c 80 bd 5e 86 b4 bd 2d b5 b7 bd
       0.026016783 -0.06270777 -0.08814691 -0.089701034
000360 7c 15 d3 bc 86 40 8e b8 cb a7 65 bd 2e d9 8a 3d
       -0.02576708 -6.783106e-05 -0.056068223 0.06779705
000370 2a 52 f0 3c 2b e6 5f 3d c7 0f 1a 3e 3a aa a9 3d
       0.029336054 0.054662865 0.15045081 0.08284421
000380 0f 62 b6 3d f3 b4 b5 bc bd e8 27 3d 9e 6b 08 bd
       0.08905422 -0.02218101 0.04099344 -0.033305757
000390 a8 5b 15 3c a6 05 9e bd 8d c0 b2 3d 3f 18 9a bd
       0.009116091 -0.07715921 0.087281324 -0.07524156
0003a0 90 83 d4 3d 94 f1 07 be 8b 8f 15 3e 57 79 81 3d
       0.10376656 -0.13275748 0.14605539 0.06321972
0003b0 68 8c 9e 3c e3 44 3a 3e d9 dc 0c 3e fc a5 22 bd
       0.01935406 0.1819034 0.13756122 -0.039709076
0003c0 1f 80 21 bd 2a a1 97 3d 00 0e 64 3c a0 62 1d bb
       -0.039428826 0.074037865 0.0139193535 -0.0024015084
0003d0 50 b4 47 bd dd 0d 05 3e 51 4d 35 3d a8 3a d8 bd
       -0.048755944 0.1299357 0.044263188 -0.10558063
0003e0 ee 5d f8 3d bd 94 82 bc b2 41 20 3d 18 7f 01 bd
       0.12127291 -0.015940065 0.039125152 -0.031615347
0003f0 ff 49 b6 3d c8 53 1b bc bd ca f6 3c 00 c8 11 ba
       0.089008324 -0.009480424 0.03012597 -0.00055611134

encoder.block.1.layer.1.adapter.sharif_llm_adapter.0.bias f4 [8]
000000 bf b0 2a bd 81 23 68 bd 64 05 9e bd 28 c8 77 bd
       -0.041672464 -0.056674484 -0.07715872 -0.06049362
000010 d3 a9 53 bd 63 ba 89 bd 88 ef 56 bc 28 b1 63 3c
       -0.05167563 -0.067250036 -0.013118632 0.013897218

encoder.block.1.layer.1.adapter.sharif_llm_adapter.2.weight f4 [512, 8]
000000 cd 36 5d 3e 95 81 91 3e fe 6a 3d be d9 08 c0 3d
       0.21602936 0.28419176 -0.18497846 0.093766876
000010 25 9a 8a 3e fc 52 90 be 1c 1c a6 3d e4 e6 2e bd
       0.27070728 -0.28188312 0.0811083 -0.042700663
000020 ac c4 a5 3e 0e 5a 34 3d 5c ee 2d bd 54 04 8a be
       0.3237661 0.044031195 -0.042463645 -0.26956427
000030 2e 37 82 be 25 46 26 be 3e 08 31 be 7e ef c5 3d
       -0.25432724 -0.16237696 -0.172883 0.0966482
000040 7a e5 15 be c6 b3 2b 3e 4f b2 49 be 18 a2 5a 3d
       -0.1463832 0.16767797 -0.19696926 0.05337724
000050 34 4f 95 3e d5 4f f2 3b 3d 89 06 3e c8 14 6a 3e
       0.2916199 0.0073947706 0.1313829 0.2285949
000060 93 02 a6 3e 1c c8 25 3c 88 9f 33 3e 82 27 e2 3e
       0.3242384 0.010118511 0.17541325 0.44170767
000070 fa 1f f5 bb ac 7e 86 3e a7 94 3c 3e 3c 31 ce bd
       -0.0074806185 0.26268518 0.18416081 -0.100679845
000080 e0 1c 9a 3e 3d 55 4d 3e 6f 76 4d 3d 4c 66 c8 bd
       0.30100155 0.20052047 0.050161775 -0.097851366
000090 db f8 9b 3d 6a 0b 41 bc 17 ae 4a 3e e1 f6 82 be
       0.07615825 -0.0117825065 0.19792973 -0.2557898
0000a0 bd 2e 91 be d9 1b 8e be da 86 78 3d 18 03 86 be
       -0.2835597 -0.2775562 0.06067548 -0.26174235
0000b0 2a 72 91 be ef af a1 be 9b f5 3d be 9e 9b a9 be
       -0.28407413 -0.3157954 -0.18550722 -0.3312654
0000c0 ab 5b d1 3c 2d 52 01 be 17 14 67 3c d7 79 81 be
       0.025556406 -0.12629004 0.014103911 -0.2528827
0000d0 29 9d 06 be 74 59 0b be 18 0c 9b be 4e 55 51 be
       -0.1314589 -0.13608342 -0.30282664 -0.20442697
0000e0 f6 ac a0 be 1d a1 2c bd aa 96 30 3c e4 7a 45 be
       -0.3138196 -0.042145837 0.010778109 -0.1928516
0000f0 95 ea 25 be 44 7d 99 be 5d 34 70 bd 63 13 6c be
       -0.16202767 -0.29978383 -0.058643688 -0.2305427
000100 44 6a d9 be ea 54 2e 3e ec ee 2f be 03 fa 26 3e
       -0.42463887 0.1702458 -0.17180985 0.1630631
000110 cd 60 91 3d 6a 12 da 3d d9 bb 57 3e 40 6e 9a 3e
       0.070985414 0.106480435 0.21067752 0.3016224
000120 19 82 68 be 47 64 5f be 73 07 99 be f0 c8 aa bd
       -0.22705878 -0.21815597 -0.29888496 -0.08339107
000130 f0 90 35 3e ee 89 b2 be 9b 3a 76 be 2d bd b6 bd
       0.1773107 -0.34870857 -0.24045794 -0.08922801
000140 c5 65 bf 3d 48 ce 7b 3d 39 73 8a 3e 61 62 62 be
       0.09345583 0.061476022 0.27041033 -0.22107841
000150 83 8f cd 3d e3 b3 ab 3e d8 13 6d 3e de f5 46 be
       0.10037138 0.3353568 0.23152101 -0.19429728
000160 23 1c a7 bd a4 3d e0 bd b8 71 21 be 83 2a b8 3e
       -0.081596635 -0.10949257 -0.15766037 0.35969934
000170 27 69 1d be 59 30 d1 3d 57 d7 b0 be 2f ce 8f bc
       -0.15372144 0.102143 -0.3453929 -0.01755437
000180 d0 fb 0f be f2 68 2b be 23 46 82 bc 9d be 7a 3e
       -0.14060903 -0.16739252 -0.015902584 0.24486776
000190 c3 dc 49 bb ff d2 01 be 4e fb ec 3d e0 56 84 3d
       -0.003080175 -0.12678145 0.1157137 0.064618826
0001a0 9c c2 82 3e a7 a1 d5 bd 37 47 95 3e ad e1 73 bd
       0.255391 -0.10431223 0.29155895 -0.059541393
0001b0 6f c0 8d be 63 e5 bd 3e fb e0 5d 3c 06 36 04 bc
       -0.27685878 0.3708907 0.013542409 -0.008069521
0001c0 e4 fe 16 3f c0 52 48 3c 28 57 55 3d f5 50 ec 3d
       0.5898268 0.01222676 0.05208507 0.11538879
0001d0 b1 76 e2 3d 1d ce 9c 3e 2f ec 32 be 72 d5 75 3e
       0.11057795 0.30626002 -0.1747291 0.24007204
0001e0 51 7b 4c 3e 08 10 ca be 58 e1 42 bd 77 79 24 be
       0.19968916 -0.39465356 -0.047578186 -0.1606196
0001f0 df 5a 02 3e f7 96 9f 3e 0f 0a 8c 3e f0 6d a1 be
       0.12729977 0.31169865 0.27351424 -0.31529188
000200 39 47 e1 be eb 82 c2 3e 54 cc 79 3e 4b 2c 22 3e
       -0.4399965 0.37990507 0.24394351 0.15837209
000210 98 0f 12 3e c1 5e 91 be 33 3f 86 3e c7 1e 8b be
       0.14263761 -0.28392604 0.26220092 -0.2717192
000220 9d a7 a5 be 4d 6d 30 3e 3d e4 0e 3e 66 16 85 3e
       -0.3235444 0.17229195 0.13954253 0.2599365
000230 91 04 aa 3d ea d3 0d be 41 af 4c be b1 a0 ec bd
       0.08301652 -0.1385037 -0.19988729 -0.11554087
000240 26 c3 4c 3e f4 f0 b8 3d 34 9f da 3d af 5c 81 3e
       0.19996318 0.09030333 0.10674897 0.25266024
000250 83 9b bb 3d ac c0 3c bd 81 e4 26 3e 19 36 57 be
       0.09160521 -0.046082184 0.16298105 -0.2101673
000260 d5 89 1a 3e 37 49 37 be e6 08 24 3e ea 9a 82 3d
       0.15091641 -0.17899023 0.1601902 0.06377204
000270 3b 2d 09 3e 66 4a 8d 3d 0c 6d 17 be ac dc 83 3e
       0.1339616 0.06898956 -0.14787692 0.25754297
000280 31 06 f4 3d b0 2a 36 bd 33 23 28 be 26 ed 04 bd
       0.119152434 -0.044474304 -0.16419677 -0.032452725
000290 42 8e 51 be 28 e1 57 bd 59 bb 8b be cf 95 9b 3d
       -0.20464423 -0.05270496 -0.27291372 0.07596933
0002a0 1d 02 4e 3e 12 bf 7d be 15 cf 7c be 1d 8b 6c 3d
       0.20117994 -0.24779919 -0.2468837 0.057749856
0002b0 14 36 42 3e c1 20 55 bd c3 f1 3d 3d 32 dc 17 3e
       0.18965942 -0.05203319 0.04637314 0.14830092
0002c0 c7 02 0a be df f3 a9 3e e9 00 a3 3d e5 0e c3 3d
       -0.13477622 0.3319387 0.07959158 0.09524325
0002d0 27 4e 64 be a5 1f 1f 3e f5 2d b3 be 3b 87 14 be
       -0.22295438 0.15539415 -0.34996 -0.14504711
0002e0 71 7e 6e 3e 37 a4 82 be a9 95 b9 3d 36 f5 b8 3a
       0.23290421 -0.2551591 0.090617485 0.0014111164
0002f0 07 28 8e 3c 22 7a a5 be 0a d5 7b be 61 4e a4 bc
       0.01735307 -0.32319742 -0.24592987 -0.020056905
000300 73 81 8b 3e a7 9f 44 be 7c 78 59 bc 59 c2 61 3e
       0.272472 -0.19201528 -0.013273355 0.22046794
000310 67 db 08 3d 65 72 e8 bd 82 d5 a7 ba b3 58 f8 bd
       0.033412363 -0.11349944 -0.0012804719 -0.12126293
000320 ed 6a e4 bb 91 e3 a7 be eb de 0c 3d 23 bd 43 3e
       -0.0069707544 -0.32790807 0.03439228 0.19115119
000330 34 d9 8a be f0 9d 45 be 68 90 53 3c 64 0a dd bd
       -0.27118838 -0.1929853 0.012912847 -0.107929975
000340 3d 43 08 3e c5 06 93 3e 08 cd 8b 3e ca 49 59 be
       0.133069 0.28716102 0.27304864 -0.21219555
000350 1e ae 9d 3c 34 42 9c bd 9b a0 19 be bf 01 02 be
       0.019248065 -0.07629815 -0.15002672 -0.12695979
000360 73 2a 12 3e 3d 6a 83 be 63 8e 64 3e 66 a6 20 be
       0.14274006 -0.2566699 0.22319941 -0.15688476
000370 93 a0 90 3e 3c 8e 85 bd 53 d2 ad bd be c3 47 be
       0.28247508 -0.0652127 -0.08487382 -0.19508263
000380 20 f3 a0 3d cc 6e 66 be 2a e6 c5 3d d5 ed 8f 3e
       0.078588724 -0.22503203 0.09663041 0.2811114
000390 1d 7e 14 bd fa 4a 7a 3e 39 29 80 3e ff c0 b7 3e
       -0.036253083 0.24442664 0.2503145 0.35889432
0003a0 db 9e 22 3e 06 9e 1a bc 45 cc ae be 02 f7 89 3e
       0.15880911 -0.00943709 -0.3414022 0.26946265
0003b0 cf ab a9 3e c6 30 b9 be 70 f6 63 3e 5b 15 3e be
       0.33138892 -0.36170024 0.22261977 -0.18562834
0003c0 3c 86 24 3e 56 42 33 be 72 23 85 be c1 8c 8d bc
       0.16066831 -0.17505774 -0.26003605 -0.01727903
0003d0 88 2a ab 3d a7 8c 42 3d b9 44 ec 3d c4 58 ab bd
       0.083577216 0.047497418 0.11536545 -0.0836654
0003e0 c7 7a 5a 3d d7 68 a0 3e 63 17 cd bc 3c d8 83 bd
       0.053339746 0.31329986 -0.025035566 -0.06437728
0003f0 3b ae 0a bd 0f 4d ea 3d 83 3f e5 3d 3f 95 62 bd
       -0.033857565 0.11440479 0.111937545 -0.055318113

encoder.block.1.layer.1.adapter.sharif_llm_adapter.2.bias f4 [512]
000000 8d 35 8c 3e 74 c1 94 3d fe 28 e9 3c e9 4b 8a be
       0.27384606 0.07263461 0.02846193 -0.2701104
000010 31 0e 08 be 82 26 aa be bf d3 f6 be ea 54 95 bd
       -0.13286664 -0.33232504 -0.48208424 -0.07291587
000020 65 3c a7 3d 49 60 6a 3e 68 a1 fe bd ae 1e 07 bf
       0.08165816 0.22888292 -0.124331295 -0.5278119
000030 34 bc 13 bd b3 10 d2 bd 3c 9f f6 bd 0f a8 20 3e
       -0.036068156 -0.102570914 -0.1204209 0.1568911
000040 a1 36 be bc 01 a3 2d 3c c0 45 81 3e a2 08 63 3d
       -0.023219408 0.010597945 0.25248528 0.055428155
000050 bf 07 f2 bd 93 35 41 3e 35 9f 0f 3e 6b 6a 76 be
       -0.11817884 0.18868093 0.14025576 -0.24064033
000060 84 0e 8a be 21 8a 3a be 29 f2 ad 3d 5f e6 a5 3d
       -0.269642 -0.18216754 0.08493454 0.081005804
000070 22 5d 09 3e b6 48 ca be fe 65 44 be f3 35 2b ba
       0.13414434 -0.395086 -0.19179532 -0.00065311714
000080 c9 3d 7a be b4 e6 71 3e c6 48 a9 3e 86 e2 8e be
       -0.24437632 0.23623163 0.33063334 -0.279072
000090 9d ba cc 3b 3a 61 49 be 76 b2 ee be 15 1f 9f 3d
       0.006247832 -0.19665995 -0.4662053 0.077696
0000a0 36 c1 74 3e a5 a8 b4 bc 0e 83 62 bd 2b fb 20 bd
       0.23901829 -0.022053072 -0.055300765 -0.039302032
0000b0 fe e6 b1 bc 1a 42 60 3e 40 bf 67 be 26 28 8a bd
       -0.021716591 0.21900216 -0.2263155 -0.06745939
0000c0 6c 84 4d 3e 0e 59 30 be 47 d9 e1 3c 09 34 2f be
       0.20070046 -0.17221472 0.027569426 -0.17109694
0000d0 b9 61 a3 3e 13 25 cc bd 31 c4 d4 3e 83 b8 32 be
       0.31910494 -0.09968009 0.41555932 -0.17453198
0000e0 02 42 64 be dd 66 a5 be 3e f8 02 be 75 d0 0b be
       -0.22290805 -0.3230504 -0.1279001 -0.13653739
0000f0 01 f1 b7 3e cb a1 86 be 64 de ee 3d 1a a6 9b 3e
       0.3592606 -0.26295313 0.116635114 0.30400163
000100 26 81 0c 3e c2 6e 02 3e 27 57 9e be a6 4e 05 3e
       0.13721141 0.12737563 -0.30925867 0.13018283
000110 43 08 27 3e d9 f7 56 3e b0 e0 b4 be 8f de 96 bd
       0.16311745 0.20992984 -0.35327673 -0.073666684
000120 61 52 51 3e f6 bb f7 bd c1 1d 8c be 5a ac 4c 3e
       0.20441581 -0.120963976 -0.2736645 0.19987622
000130 ce 76 eb bd f9 52 5c 3e 52 0d 44 be c6 e3 e3 bd
       -0.114972696 0.21516027 -0.19145706 -0.11127429
000140 37 1d 00 3e f3 f8 65 3e 32 e9 eb 3d 7a 3c c2 be
       0.12511145 0.22458248 0.11519088 -0.37936765
000150 47 88 e8 3d d4 3b d3 bc c2 ed 6d be 4c 25 28 be
       0.11354118 -0.025785364 -0.23235229 -0.16420478
000160 90 f0 17 be 4d b0 ec bc c5 bc 81 be b8 c5 89 be
       -0.14837861 -0.02889266 -0.25339332 -0.2690866
000170 1f cd ae be 9c 9a 94 be bb 7d cf bd 29 2f a2 be
       -0.3414087 -0.29024208 -0.10131403 -0.31676605
000180 7d 7d 4f be a7 87 64 be 3a d2 93 be 4d 99 30 3e
       -0.20262714 -0.22317372 -0.28871328 0.1724598
000190 60 84 a6 3e 74 98 5b bd 71 fb 42 be 07 e5 6b be
       0.3252287 -0.053612188 -0.1904123 -0.23036586
0001a0 4d 28 19 3e 58 90 58 3e 38 df 76 3e 45 a1 7e 3e
       0.1495678 0.21148813 0.24108589 0.24866207
0001b0 1b 87 3d 3e 7d 21 9c be c4 89 ab bd 49 0b 03 bc
       0.1850857 -0.304943 -0.08375886 -0.007998296
0001c0 55 cb 95 3c 4a d2 94 3c 5b c0 5b 3e cb b0 0c 3c
       0.018285433 0.01816668 0.21460097 0.008587073
0001d0 40 d0 81 be 0d d5 37 be 17 9d 43 be 99 f8 99 bd
       -0.25354195 -0.17952366 -0.19102894 -0.07518119
0001e0 56 a6 a4 3d c3 27 db 3e 22 94 88 3d 5e cf d9 bd
       0.080395386 0.42803773 0.06668879 -0.10635255
0001f0 fc 40 1e be 83 28 17 3f fb 9f c6 3e 39 9b 0d 3e
       -0.15454477 0.5904619 0.3879393 0.13828744
000200 2e 99 1f 3e 9f b4 85 ba c9 6b 9c 3e 4b 4b 86 3e
       0.15585777 -0.0010200924 0.30550984 0.2622932
000210 09 f8 da 3c 6c fd a7 3e a8 c2 82 3e 13 0d 54 be
       0.0267296 0.32810533 0.25539136 -0.20708112
000220 1c ea a6 be 08 d1 67 be a7 9f 95 3e eb b8 6e 3e
       -0.32600486 -0.22638333 0.29223368 0.23312728
000230 d6 4a 50 be cb 35 7a 3d 97 23 5c 3e 04 4b 82 3e
       -0.20341048 0.061086457 0.21497951 0.25447857
000240 7e c5 98 3c 35 49 c5 bc a5 96 b7 bd 62 aa 8d 3d
       0.01864886 -0.02408276 -0.0896428 0.069172636
000250 38 de 92 3e fd 7d 8d be 74 e4 7d bc 67 79 8e 3e
       0.28685164 -0.27635184 -0.015496362 0.27826998
000260 18 a1 ac be c2 3c 0b 3e 12 d3 81 3c a0 a3 ae bd
       -0.33716655 0.13597396 0.015847716 -0.08527303
000270 60 0f d0 3e 6d f8 8b be c0 c4 ac bd 33 e2 3a bc
       0.4063673 -0.2733797 -0.084359646 -0.011406469
000280 e3 72 f5 bd 5f 2e 55 3e fb 5e 51 3e 84 ad fd 3d
       -0.119848035 0.2081847 0.20446388 0.12386611
000290 06 0a 06 3c 46 3e 94 3d e8 4b 1a 3d ca 69 9b be
       0.008181101 0.0723844 0.037670046 -0.30354148
0002a0 e5 c2 c4 3e 14 c8 6d be da 5a b7 be 18 6c 76 be
       0.38429943 -0.23220855 -0.35811502 -0.24064672
0002b0 4d a1 8f 3d c0 bb 93 be fe fd 9d be 4b 14 99 3d
       0.070131876 -0.2885418 -0.30857843 0.07474574
0002c0 2a 39 0b be 8c 32 39 be 20 dc 4f bd ff c5 59 be
       -0.13596025 -0.18085688 -0.050747037 -0.21266936
0002d0 dd 6e c0 bd 4c 82 90 be 06 f3 88 3e d6 f6 0f be
       -0.093961455 -0.2822441 0.26747912 -0.14059004
0002e0 e3 a6 9b bd 8f a7 b5 bd 60 24 2d 3e 18 8a a3 3d
       -0.076001905 -0.0886985 0.16908407 0.07985324
0002f0 75 54 7a 3e d4 24 a6 be d0 7d eb be 8e be b8 3d
       0.2444628 -0.32449973 -0.45994425 0.090207204
000300 4e 3d d6 be 01 32 c9 be 25 2f fa bd 6c f3 cc bd
       -0.41843647 -0.39295962 -0.12216023 -0.100073665
000310 fd 16 51 be cc 41 3e bd 04 f9 80 be 2d e0 5d 3e
       -0.20418926 -0.046449468 -0.25189984 0.21667548
000320 ea d8 cf 3d 38 ca 50 be 80 0a df be 95 b4 93 be
       0.10148795 -0.2038964 -0.43562698 -0.2884871
000330 19 4a 6f 3e 5c 4d 30 3d 48 f8 0e 3e 0e d8 0c 3e
       0.2336811 0.043042526 0.139619 0.13754293
000340 a0 63 9c 3e f2 5d a7 be d0 b6 79 3e fe 13 ae 3e
       0.30544758 -0.32688862 0.24386144 0.33999628
000350 29 8f 36 bc 1f 60 b0 be fd 86 95 b9 c0 15 60 3e
       -0.0111425305 -0.34448335 -0.0002852007 0.21883297
000360 a2 c7 ee bd 6e b0 02 3e b8 76 33 b9 50 bf 9c be
       -0.11659171 0.12762615 -0.00017114996 -0.3061471
000370 13 61 dc 3d a2 2c 3b 3e a7 92 53 bc f9 3d 13 be
       0.10760703 0.18278745 -0.012913383 -0.1437911
000380 1a 0a 31 3e f6 e0 66 3d c8 5d 4b 3e 74 0a 2a 3e
       0.1728901 0.056366883 0.19859993 0.1660555
000390 da 2b 89 3e 8c fa e5 be 30 57 78 3e 2a db 8c be
       0.2679127 -0.44917715 0.2425201 -0.2751096
0003a0 b9 e4 14 3e 01 8b af 3e a8 5c 2f be 82 e6 4d be
       0.14540376 0.3428574 -0.1712519 -0.20107463
0003b0 6a fc b8 3e 47 0d f5 3e 03 02 56 3e 9d 1c 14 be
       0.36130077 0.47861692 0.20899205 -0.1446404
0003c0 ec 80 e2 bd 8a 58 b1 be 8d ec bf be 59 5e 10 be
       -0.11059746 -0.34637862 -0.3748516 -0.14098491
0003d0 b9 23 aa 3d 27 96 bb 3d c8 a7 0a 3e fd 8c d3 bd
       0.08307595 0.09159499 0.13540566 -0.10329626
0003e0 51 c8 9a 3e e5 1b 68 be d7 bb e2 bd 24 d2 1c 3e
       0.30230954 -0.22666891 -0.11070984 0.15314537
0003f0 b2 42 49 bd b2 b6 7a 3e 0d b9 6e 3e 1a 7b 54 3e
       -0.04913587 0.24483755 0.23312779 0.20750085

encoder.block.2.layer.1.adapter.sharif_llm_adapter.0.weight f4 [8, 512]
000000 5a 03 12 3d 1b a3 64 bc 69 e7 84 bc 83 20 77 3d
       0.035647728 -0.013954903 -0.016223626 0.06033374
000010 b7 88 c4 bd 3e bb 6e bd b1 79 5d bd be b4 ca 3d
       -0.09596389 -0.058284037 -0.054071132 0.09897755
000020 08 96 1f 3e 3c 1a b5 3d e9 a4 3f bd 83 0b d5 3c
       0.15584576 0.088428944 -0.04678813 0.026006466
000030 82 a1 70 ba 7b 6b a0 3d 2b bf 03 3d 16 6c 09 be
       -0.000917934 0.07833 0.032164734 -0.13420138
000040 ec fc dc 3d 7c 31 a8 3d bd 59 6a bd 3c 20 e1 3d
       0.107904285 0.082125634 -0.057214487 0.10992476
000050 be 79 47 bd cc c0 7a 3d f0 22 43 bc 7b 84 2b 3d
       -0.048700087 0.06121902 -0.011910185 0.04187439
000060 a6 af 5e 3d 55 23 4c 3d 13 4b e5 3d 18 42 1d 3e
       0.05436673 0.049838383 0.1119596 0.15357244
000070 50 d6 f9 bd 2a 9b 91 3c f6 a6 d4 bd cc 70 a8 bc
       -0.1219908 0.017774183 -0.10383408 -0.020561598
000080 2a 35 79 3c ea bc 69 bd e5 79 1f 3d e0 37 c7 3c
       0.015210429 -0.057064928 0.038934607 0.024318635
000090 19 e3 e1 bc ac 0b 60 bd 2c 58 75 3c bb 30 83 bd
       -0.027574109 -0.05469863 0.014974635 -0.06405779
0000a0 58 aa 76 3d b8 3b c4 bc 97 3d cf bd 2e 3b 57 3d
       0.060221046 -0.023954257 -0.10119169 0.052546673
0000b0 77 f2 84 bd 4c 98 41 3c 0c c4 bb bb ec 37 f6 bc
       -0.06491559 0.011816096 -0.0057301577 -0.030055963
0000c0 80 6e 7f 3d 4a 45 bd bb a4 2d f1 3c 48 68 63 bc
       0.06236124 -0.005776082 0.029440708 -0.013879843
0000d0 f1 e5 4e 3d 62 62 70 3d 91 69 78 3c e6 2a f8 3c
       0.050512258 0.058687575 0.015161888 0.030293893
0000e0 b7 5f 32 3e 4f c0 86 3d 45 97 28 3d db f7 1c 3d
       0.17419325 0.06579649 0.041159887 0.03832231
0000f0 8b bc 02 3e 57 72 52 bd da d5 b4 bd 15 9b 3b 3d
       0.12767236 -0.051378574 -0.088298514 0.045802195
000100 20 c8 2d 3e 3b 3e b9 bd 20 5a ae 3d 63 9f e9 bc
       0.16970873 -0.09045073 0.08513284 -0.028518384
000110 cc b3 87 bd 0e f3 0a 3d 71 9a 92 3d 44 7b a0 bd
       -0.066260904 0.0339232 0.071583636 -0.07836011
000120 51 cd 04 3c e2 eb bf bd ab b4 1c bd 3e 1c c9 bc
       0.008105592 -0.09371163 -0.038258236 -0.0245496
000130 fb 44 ba bc ac d4 8f 3d 49 a0 a5 bd 10 14 c0 bc
       -0.02273797 0.07022986 -0.080872126 -0.023447067
000140 ca 7b 92 bc f3 fa 42 3d e3 db f4 3b 25 f9 a8 bc
       -0.017881293 0.047602605 0.0074725016 -0.020626614
000150 e0 0f 32 3d 51 b4 45 bc 1b d0 b2 3b 14 ea 05 3e
       0.04347217 -0.012066917 0.005456937 0.13077575
000160 1c 43 2c 3d 95 8f 69 3d a4 4b 92 3a 19 28 d4 bd
       0.042056188 0.057021696 0.0011161459 -0.103592105
000170 66 0c f4 3d f9 a5 b8 3d 36 d7 31 bd ec d2 fc 3d
       0.11916427 0.09016032 -0.04341813 0.12344918
000180 42 28 f6 3c 94 c6 d0 3d 31 04 d8 3d 4a db 8c bd
       0.030048493 0.10194126 0.105476744 -0.068777636
000190 07 ce 9e 3b 80 75 c8 3d 16 2b 81 3c 3d 25 a0 bd
       0.0048463377 0.09788036 0.015767615 -0.07819603
0001a0 fb 3a ad bd 96 c4 c2 3d cd bf ab bb b7 b6 b9 bc
       -0.08458515 0.09510152 -0.0052413703 -0.022670133
0001b0 d1 97 01 3c 08 c6 af 3c f9 7f d7 3d 8e a6 35 3d
       0.007909731 0.021456733 0.10522456 0.044348292
0001c0 c8 84 88 bc ac 1c 30 3d 23 0f ba bd f7 30 72 bd
       -0.016664878 0.042996094 -0.09084918 -0.059128728
0001d0 11 be 26 bd f2 3b c9 3d 36 2e 1c bc be 04 00 3d
       -0.040708605 0.09825887 -0.009532502 0.031254523
0001e0 8a 53 0e be e9 a3 23 be 92 32 af bd 99 fc 8b 3d
       -0.13899055 -0.15980496 -0.085545674 0.068352886
0001f0 fb a8 73 bd 43 06 4a 3d 5c 8f 94 3c dc 46 bf 3c
       -0.059487324 0.049322378 0.018134765 0.023349218
000200 ab e1 17 3d 7b 42 1f 3d 95 73 7e bd 1e d6 7f 3c
       0.037080448 0.03888176 -0.062121946 0.015615014
000210 f4 39 84 3d 9f c9 53 3c 60 4f 71 3d 88 e6 d6 3d
       0.06456366 0.012926488 0.05891359 0.10493189
000220 1f 99 b3 3c cd 3f 81 bd ab e1 1e 3d 6c ea 09 bd
       0.0219236 -0.06310997 0.038789432 -0.033670828
000230 09 bd 7b bd a0 a0 76 3d dd f2 d4 3d 1e 39 80 bd
       -0.061459575 0.060211778 0.10397885 -0.06260894
000240 10 e1 b9 3d 69 76 55 3c d1 a6 ba 3d 95 d3 3c bd
       0.090761304 0.013028719 0.09113849 -0.046100218
000250 1d 2b 9b bc eb c8 cd 3d 0d 33 e0 bc 60 cd 4d bd
       -0.018941456 0.10048088 -0.027368093 -0.05024469
000260 b6 71 4b bd 62 ac 25 be 5f f7 38 3c c4 8d 0b be
       -0.04966899 -0.1617904 0.011289447 -0.13628298
000270 34 00 c6 bc 75 f7 8a bd bb ea d8 bc 00 5f 6d 3c
       -0.024170019 -0.0678548 -0.026479116 0.014487982
000280 4e 32 b9 bc fb cc 4d bd c0 7c 4f 3c ea 11 9c 3d
       -0.022606995 -0.050244313 0.01266402 0.07620604
000290 55 9c b0 bc 97 5f 03 be b2 1b 75 3d d4 12 35 bc
       -0.02155892 -0.12829433 0.059840865 -0.011051852
0002a0 3b 08 a2 bd 8e e2 c3 bd e5 71 19 bb 89 10 1f 3d
       -0.07911726 -0.09564696 -0.0023413834 0.03883413
0002b0 af 04 08 3d c7 34 11 be ae 85 47 3d fb 09 49 bc
       0.03320759 -0.14180289 0.04871147 -0.012270446
0002c0 60 6d 11 be c6 ee 6d 3d e0 98 5d 3c 5b ca 08 bc
       -0.1420188 0.05808904 0.013525218 -0.008349027
0002d0 73 fb af 3c d4 d5 82 3d b7 74 84 3d 9d 96 6f 3d
       0.021482205 0.06388441 0.06467574 0.058493245
0002e0 ef f1 e3 bc 4a 59 4e bc 9d e3 81 bb ba bb 1c 3b
       -0.027825324 -0.01259453 -0.003963901 0.0023915605
0002f0 2c 1d dd bd cd 8e 2f 3c 67 39 88 3b f4 3a a6 3d
       -0.1079658 0.010715199 0.0041572335 0.08116713
000300 2d e3 b3 3c 97 50 ff ba 8a 2f c5 3c b3 61 24 bc
       0.021958912 -0.0019478974 0.02407052 -0.010033059
000310 09 18 2a bd b0 62 5d bd 61 3e d8 bb 18 c5 6e 3d
       -0.041526828 -0.054049194 -0.006599233 0.058293432
000320 6a 98 b0 bd fb a0 1a bd f2 b7 40 3c a5 de 62 bd
       -0.08622821 -0.03775118 0.011762606 -0.05538811
000330 c3 98 c1 3d 32 15 17 bd 6b 17 6f ba 34 ed 45 bd
       0.09452965 -0.036885448 -0.0009120616 -0.048321918
000340 3e 9a 1d bd 33 79 1a 3c 73 df 91 3b 55 8b 1a bd
       -0.038477175 0.00942831 0.004451686 -0.037730534
000350 d8 0a ab 3d d9 be e4 3c 88 8e f9 bb 4d fc ed 3d
       0.08351678 0.027923035 -0.007615868 0.11620388
000360 9f 14 e0 bd 91 95 14 bb d7 2c 17 3e b9 43 a0 bd
       -0.10941433 -0.0022672156 0.14763199 -0.07825417
000370 a3 48 d2 bc ee 78 9e bd f6 91 cf bc 44 f9 b3 bd
       -0.025669402 -0.07737909 -0.025338154 -0.08787778
000380 23 03 47 3d e4 b0 a0 3c 06 12 ed bd 5f ad c6 3a
       0.048586976 0.019615598 -0.11575703 0.001515787
000390 0e 0a 88 3d 2e e1 df bd f5 78 f3 3c ed a8 ba 3d
       0.06642543 -0.109316215 0.029720763 0.09114251
0003a0 e8 de 3f be 14 16 35 3c 11 8b e4 3c 9a 65 f0 bd
       -0.18737376 0.011052627 0.027898343 -0.11738129
0003b0 52 aa 73 bd a5 26 b4 3d 15 e3 19 3e f7 13 25 bd
       -0.059488602 0.08796433 0.15028031 -0.040302243
0003c0 48 71 3d 3d 6d 50 f0 3b 41 7a 1e 3b 1f 7c 71 3d
       0.04625061 0.0073338063 0.0024181756 0.05895626
0003d0 b3 32 01 3e fd c5 1d bb b5 14 be 3d 68 b6 83 bc
       0.12616996 -0.002407431 0.09281293 -0.016078189
0003e0 99 b4 09 be 6b 1a 0f bd cf 65 03 bc 93 c3 9e bd
       -0.13447799 -0.034937304 -0.0080198785 -0.077521466
0003f0 b3 d8 1f bd 15 60 2f bd 64 19 e3 3c 55 9f d3 3d
       -0.03902502 -0.04281624 0.027722068 0.103331245

encoder.block.2.layer.1.adapter.sharif_llm_adapter.0.bias f4 [8]
000000 0b ba a5 bc 89 5c 02 be fe fe d0 3c 27 ce 5d bd
       -0.020230314 -0.12730612 0.025512215 -0.05415168
000010 72 45 6a bc 86 3c 29 bd 33 b6 37 bd 98 3c cd 3c
       -0.014298784 -0.041317485 -0.044851493 0.025053307
